models and code/models and code/best_simplecnn.pth (torch, 746978 bytes, 11 tensors)

encoder.0.weight f4 [32, 3, 3, 3]
00000000: eb55 47bd 22c0 833d c7ce 07be e54c 28be
00000010: 4bb6 e43c c390 b63d fdb5 3f3d 042c 27bd
00000020: 3d4b 3ebc cf09 95bd 2560 07be 1cc9 3abe
00000030: 80fa 053e ac80 9b3d 3b13 e03d 2200 953b
00000040: 45e0 d03d 0540 2b3e 4e6c 3cbe ff2b 14be
00000050: a8ac 53bd 0e09 54bd c974 bebd af2f ff3d
00000060: 60da 013e c7d0 d83d c703 e53d 0819 c2bb
00000070: 7e6d 3cbd 6cff 0e3e 4827 18bd 7dad 1f3e
00000080: afc5 3e3e 0a3b d8bd 2910 27be bde5 e03d
00000090: 06da 033d f9cb 743d 3e50 28be 854f 1cbe
000000a0: f28c 2b3e 6d8e ffbd d304 02be 2369 22be
000000b0: 972a 223d 3975 003e a4c5 0e3e 8570 a6bd
000000c0: 6ab2 d5bd 1042 47bb 3e5f d53d d396 393d
000000d0: e158 36be 774b 033e 44d0 c2bd 9c37 e6bd
000000e0: bf94 433e 4fd6 df3d 3824 bc3d ca77 10be
000000f0: 2f4d 5abd 6312 493d 6527 aabb e2cc fd3d
00000100: 87dd b9bd a320 313e bc5f fabd e82d 30bd
00000110: 9919 0ebe b1c5 d53d df11 0b3e 55fe 07be
00000120: 2fd5 3bbe 9a4d 2cbd fd30 20be ae96 3f3e
00000130: b75b eabd e50c 3c3e 0920 353c cf2a 8ebd
00000140: dd9e 033d 387b 573e 02d9 1cbe d9b6 35bd
00000150: 9a26 f93d 2f53 a43d ebaa a43d 9615 613d
00000160: de84 33be 8c6a ca3d c182 4ebd e098 303c
00000170: ab97 1dbe c03c e6bd 3965 17be 8a11 063c
00000180: 904e f93d 5b46 b63d 5c3e 24be 17cd 493e
00000190: b567 58bd 13c9 05be 232e c2bd 773f debd
000001a0: 0809 003d 9326 81bd fb4b 90ba 5252 9c3d
000001b0: df0d 3e3c 36d7 f4bd 33b9 f6bc e88b f33d
000001c0: 221b 413e 9407 3d3e f0b6 bdbd 08d9 1dbe
000001d0: 6665 1abe 16a5 25bd 4786 793b 91d5 fbbc
000001e0: 76e0 d73d 3e1a f9bd 0873 a53c cd4e 8cbc
000001f0: 18de f7bd 51b0 8d3c 9183 d13c 5035 f13d
00000200: 03f4 f3bc b17f 253e ac95 cc3d c1e3 103e
00000210: d8c3 8b3d e9cc 3a3e fc87 2abd 3aa3 30be
00000220: ee20 143e df5f 00be f95b bcbc 91c2 b2bc
00000230: 37da debd cce9 1f3d a5c1 3a3e 7cb3 3cbd
00000240: 6760 983c 58d6 f2bd b66c 2c3d f566 ed3d
00000250: 81ae 403e 008d 22be 05e2 2f3e 2099 033e
00000260: 05cf a7bd de76 33be a689 22bd f0f2 f6bc
00000270: 2f4f d43d a1de 383e 4e2f 7d3d a0ef d5bd
00000280: ef50 da3b 2b9f 10be 37fe ef3d fa4b 0f3e
00000290: f3d0 d33d 623a cdbc af43 febd 7651 0cbe
000002a0: dfe2 a03d cd4f ad3b 8c90 963d 1d1f aebd
000002b0: aad5 20be fc3a 7ebd db80 2e3e 1661 ba3d
000002c0: 272b 103d 373e ba3d 3775 843c 5d06 8cbc
000002d0: 9a8d 37be eb87 19be d5ee 20be ac4d f53d
000002e0: 2d3f b8bd 5d67 913d d0af 99bd 9df4 38be
000002f0: 3c9e 99bb 615b fa3d a213 d1bd 78dd 0a3e
00000300: d6ac d5bd a463 16be 6f00 e23c a68a d5bd
00000310: 8085 733c 60e6 41bc e95a 9f3d 2322 343e
00000320: 3fb1 473e 0ac7 113e a69f 31be d453 6cbd
00000330: 9589 843d 2ff1 803d 6cf4 8fbd 891d 443e
00000340: 6b91 a53c c749 073d 278c 2ebc 3bbc 16be
00000350: 1c37 34bd 5ac3 92bc bace 1a3c db48 09bd
00000360: 85c8 a13d 46e1 26be d39f 19be e7b5 623d
00000370: 228f 283e 99a8 b9bd 0919 833c f8a6 6ebd
00000380: 96a6 a43d cc3f 16be 50c4 fc3d c092 033e
00000390: a993 e43d cf4e 443e 8ca5 ac3d fd82 43be
000003a0: fe6f caba 7994 093e 1c14 a23d e52b 1a3e
000003b0: ec16 ef3d d9be cf3d cd29 3c3e ed45 0bbd
000003c0: 1636 3bbd 238e 41be 8ca2 e73d e1f4 553d
000003d0: 41c4 15be 5e8c 3fbe 24fe 9cbd eb99 9fbd
000003e0: cc30 153d a0c2 62bd 4ed2 32be f317 2fbd
000003f0: 05e9 0b3e 0573 093e 946c 2a3e 2801 c1bd
-0.048665922 0.06433131 -0.13262473 -0.16435583 0.027918955 0.0891433 0.046804417 -0.04081346
-0.011614618 -0.072772615 -0.1322027 -0.1824078 0.1308384 0.075929016 0.10941168 0.004547135
0.10199026 0.1672364 -0.1840069 -0.14469908 -0.05167833 -0.051766448 -0.09299619 0.12460267
0.1268096 0.10586696 0.11182361 -0.005923394 -0.046002857 0.13964623 -0.037146837 0.15593524
0.18630098 -0.10558136 -0.16314758 0.10981319 0.032190345 0.059764836 -0.1643686 -0.1526471
0.16752985 -0.124783374 -0.12697153 -0.15860419 0.039591398 0.12544717 0.13942581 -0.0812693
-0.104344204 -0.0030404367 0.10418557 0.045309853 -0.17807342 0.12821756 -0.0951238 -0.112410754
0.19099711 0.10929548 0.09186596 -0.14108196 -0.053296264 0.0490898 -0.0051926845 0.12392594
-0.09075456 0.17297606 -0.12225291 -0.04301253 -0.13876952 0.10438097 0.13581036 -0.13280614
-0.18343042 -0.042066194 -0.15643688 0.18709823 -0.114432745 0.18364294 0.011055001 -0.06941759
0.032133926 0.21043098 -0.15317157 -0.04436383 0.12165566 0.080236785 0.080404125 0.054952227
-0.17531154 0.098836035 -0.050417665 0.010778636 -0.15389888 -0.11242056 -0.14784707 0.008182893
0.12173188 0.08900138 -0.16039413 0.19707142 -0.052833278 -0.13064985 -0.09481456 -0.10851949
0.031258613 -0.063061856 -0.0011008972 0.07632889 0.011599987 -0.11955111 -0.030117607 0.118919194
0.18858007 0.18459922 -0.09263408 -0.15414822 -0.15077743 -0.04044064 0.003807442 -0.030741485
0.105408594 -0.121632084 0.020196453 -0.017127419 -0.12102908 0.017295988 0.025575431 0.11777747
-0.02977944 0.16161992 0.09989485 0.14149381 0.068244636 0.1824223 -0.04163359 -0.17249766
0.14465687 -0.12536572 -0.022993075 -0.021821292 -0.10881465 0.039041325 0.18237932 -0.046069607
0.018600656 -0.11857289 0.042095862 0.11591903 0.18816568 -0.158741 0.17176063 0.12851381
-0.08193783 -0.17525813 -0.039682053 -0.030145139 0.103666656 0.18053676 0.06181269 -0.104460955
0.00666248 -0.14123218 0.117184095 0.13993827 0.10342588 -0.025052253 -0.12415253 -0.1370295
0.07855772 0.005289054 0.07351789 -0.08502028 -0.15706506 -0.06206797 0.17041342 0.09100549
0.035197403 0.09093898 0.016169174 -0.017092878 -0.1792511 -0.14993255 -0.15716107 0.11977705
-0.08996425 0.07099793 -0.07504237 -0.18062063 -0.0046880525 0.122244604 -0.10208823 0.13561046
-0.104333565 -0.14686447 0.027588097 -0.10426836 0.014863372 -0.011834711 0.077810116 0.17591147
0.19501208 0.14236084 -0.17346057 -0.057697132 0.06471554 0.06296002 -0.07029042 0.19151892
0.020210942 0.033029344 -0.010653532 -0.14720242 -0.04399787 -0.017915417 0.0094487015 -0.033516746
0.07899574 -0.16296872 -0.15002374 0.055349257 0.16460851 -0.090653606 0.016003149 -0.058264703
0.08039586 -0.14672774 0.12342131 0.1284895 0.111609764 0.19170688 0.08430013 -0.19092937
-0.0015444753 0.13435544 0.07913992 0.15055807 0.11674294 0.10143823 0.1837532 -0.034002233
-0.045705877 -0.18901877 0.113103 0.052235488 -0.14625646 -0.1870589 -0.07665661 -0.077930294
0.03642349 -0.05536139 -0.17463037 -0.04274745 0.13663109 0.13422783 0.16642982 -0.09424049

encoder.0.bias f4 [32]
00000000: 8df0 22bd 7b97 9cbc 6d33 c13d 8c45 033e
00000010: fd21 223e 9763 983d 65dc 0fbe 0683 0abd
00000020: 0b3c 003e 1fd0 343c 1f0e 0f3e b107 b5bd
00000030: b248 49be 00ca 0abc 9599 463e ce68 74bd
00000040: 01a7 ae3c feaf 2d3d d106 85bd d2e1 963b
00000050: 6ff6 9e3d 3944 8abd 0d90 ad3d 8385 76bd
00000060: 6f7f c73d 08a3 07be 9978 053e ca04 13be
00000070: 088b 933d 4bb0 f93b 29dc 7e3d 7659 3b3d
-0.03978019 -0.0191152 0.09433637 0.12819499 0.15833278 0.0744087 -0.14048918 -0.03381636
0.12522905 0.011035948 0.1397023 -0.08839358 -0.19656637 -0.008471012 0.19394524 -0.059670262
0.021319868 0.042404167 -0.06495441 0.0046045566 0.07761847 -0.06751294 0.08474741 -0.06018592
0.09741103 -0.13245785 0.13034286 -0.14357296 0.072042525 0.0076198927 0.06222168 0.045739613

encoder.3.weight f4 [64, 32, 3, 3]
00000000: feee e2bc 47ad 033d 08fb f7bb d236 32bd
00000010: 8f21 a23c 154f 47bd 64a4 7a3d 7cfe 3abd
00000020: 3b32 40bd 9b2a 823c cbcc 033c 6420 1b3d
00000030: 5601 b73c ff3d 063c cfb7 7c3d 8736 1fbd
00000040: 37a2 7b3d 44da 853b f15e 56bc 1138 7b3d
00000050: 98bb 5e3d c1e4 b23c 59ff 0d3d 03be b3bc
00000060: aa01 25bd d7bd 293a db23 d43c 5855 593d
00000070: c3be ef3c 7f36 2cbd 65f2 003c d945 633d
00000080: fbec 0fbd b408 ee3c 350c 0dbc 1347 2a3d
00000090: 38f9 e5bc 9fb6 debc 19ed 293c 0be0 143d
000000a0: 9b19 02bd 39fe 1c3d 7f68 b0bc 23cd 3c3c
000000b0: 00c1 143d 3f62 133d cb05 cbbc 5c03 fcbc
000000c0: 898d cbbc 8e22 9e3c b96a 033c 5b7f 08bc
000000d0: 9c56 00bd cb5a 4e3d 5fe0 10bd 4f91 56bd
000000e0: fb20 e4bc 333f ea3c 43d1 57bc 5661 3bbd
000000f0: c816 6cbc edb6 803c d5d4 c7bb 43e5 4dbd
00000100: 6e1f 0fbd eb4e 6dbd fd2f 533c 7818 043d
00000110: bb5f 4fbb 1356 e53c b085 87b9 d9b6 be3c
00000120: bb9c 81bd dd52 73bc 934c 2abd f19c 2b3b
00000130: 2a42 cf3b ec96 1dbd 88a4 423d aa4d 6f3d
00000140: 2593 75bd 713c debb 35ba 47bd 4501 e23c
00000150: 9b61 753d b17a 683c 98d6 5abd ed74 8ebc
00000160: f1f3 64bd 9463 693b b4ef af3c b5d9 59bd
00000170: 4b58 27bc f1c3 1bbd 3c71 133b 30a9 31bc
00000180: 0d89 43bd 9ede 3e3d 36ac 0abd ef15 0fbb
00000190: 1d64 643b 0f50 15bd 55b5 013d 2eb7 44bc
000001a0: c14e 3a3c c4c4 623d 0179 5fbd c36e 063d
000001b0: d11f 4ebd d56d e13c 6767 00bd 44b1 353d
000001c0: 635c 16bd 577e 0d3d ac02 03bd 3851 afbc
000001d0: d61a 89bc 8413 643d 9071 253d afd1 723d
000001e0: c23f 3d3d 4a50 473c 7238 293d d95d bd3c
000001f0: 606b 683c c88e c0bc a24d a8b8 aea2 49bd
00000200: 8770 593d cca4 393d ff69 133d dac3 12bd
00000210: a070 38bd d97d 253d 566e a93b 4b56 3e3c
00000220: 1365 e63c fccb 4bbd 5af2 51bd 70c2 06bd
00000230: e8bd 55bc 25e1 a1bb 1c92 d8bc 05c3 e8bc
00000240: 558a ffbc 01e4 4d3d d194 3d3d bd70 6d3d
00000250: b073 393d 195e b7bc 2196 55bd 285e b2bc
00000260: 8e67 4d3d 5cd0 c23c 83ed a8bc b98c ed3b
00000270: 6929 48bd c0a9 0fbc 80f1 b63c cad7 26bc
00000280: 2cfd 6e3d 6cf2 7a3d 0020 08bc 5f93 07bd
00000290: 9c0e 1c3d 3702 a5bc 8b1c 1c3d 443e d8bb
000002a0: d44e 9dbc 810c ee3c 8466 01bd 95c6 8e3b
000002b0: ea37 483c f9e9 7e3c 5bec 4ebd d9c6 5dbd
000002c0: 834a 04bd 189c c5bc 375b d5bc 41a7 0fbd
000002d0: 1237 90bb 7674 ab3c 83b8 38bd 1042 dcbb
000002e0: 038d 613d 06a4 793d ab4d 40bd c7a5 96bc
000002f0: 9b7c aabb d109 82bc 9608 053d d7c1 6abd
00000300: c02c eb3b c1d5 6dbb 3b37 89bc 2045 a9bc
00000310: 4421 b0bc 7f7f 49bd 7399 623d 0e3b 44bd
00000320: f0a5 17bd fa4b 3ebd 44f2 fa3c fb1b 4bbd
00000330: 8476 18bd bfbd 39bc 9bce 633d 371a 0ebd
00000340: 6c45 1bbd c1f6 0e3d 3cb7 e4bc febc 5cbd
00000350: 75ed d1bc 3531 1cbb 5b4d 1a3d 3951 3b3d
00000360: 95e7 4c3d 2312 5b3d f787 4cbb ed14 2dbd
00000370: 2bb2 a1bc c3b5 e8bc b6ac b63b 9c98 603c
00000380: 78cc 3d3d 45d9 1cbd 5f65 b13c 06cd 293d
00000390: e960 56bd 4065 31bd f69b 4fbd 9776 9dbc
000003a0: 4d8a 2a3c 1d9b 473d 5bed cab9 06ba f0bc
000003b0: b49a 44bd 9657 443c 18fd aabc beae 7a3c
000003c0: 1a1e 433d dfb1 b73c bd3d 00bc 9a34 433d
000003d0: c248 d33b b395 d4bc 7427 ddbc c85c 44bc
000003e0: f348 85bb bfb3 d83c f7a1 bcbb e834 33bc
000003f0: 70b6 59bd cc45 b1bc 0640 683c 6c7c 52bc
-0.027701851 0.032147672 -0.007567767 -0.043509312 0.019791393 -0.048659403 0.06119193 -0.04565285
-0.046922904 0.015889456 0.008044432 0.037872687 0.022339504 0.008193492 0.06169873 -0.03887036
0.061433997 0.004084857 -0.013084159 0.061332766 0.054378122 0.021837594 0.034667347 -0.02194119
-0.04028479 0.0006475127 0.025896003 0.053059906 0.029265767 -0.04204416 0.007870291 0.055486534
-0.03513811 0.029056884 -0.008608867 0.041571688 -0.028072938 -0.02718669 0.01037147 0.036346477
-0.0317627 0.038328383 -0.021534203 0.011523518 0.03631687 0.035982367 -0.024783036 -0.03076332
-0.024847763 0.019303586 0.00802105 -0.008331145 -0.031332597 0.050379556 -0.035370227 -0.05238467
-0.027847758 0.028594589 -0.0131724505 -0.045747124 -0.014409728 0.015712226 -0.0060983696 -0.05026747
-0.034942083 -0.05793659 0.012889859 0.032249898 -0.0031642753 0.027995145 -0.00025848811 0.023280548
-0.06328722 -0.014851299 -0.041576933 0.0026186074 0.006325026 -0.03847401 0.04752019 0.058423676
-0.05995478 -0.0067821075 -0.048761565 0.027588496 0.059907537 0.014189408 -0.05342731 -0.017389739
-0.055896703 0.0035612332 0.021476604 -0.053186137 -0.010213922 -0.03802866 0.0022497913 -0.01084356
-0.047738124 0.046599023 -0.03385564 -0.0021833142 0.0034849711 -0.036453303 0.031667072 -0.012006564
0.011371315 0.05536343 -0.054558758 0.032820474 -0.05032331 0.027518192 -0.031348612 0.044358507
-0.0367092 0.034544315 -0.03198497 -0.021401033 -0.01673643 0.055682674 0.040391505 0.059282
0.046203382 0.0121651385 0.041313596 0.02311604 0.014185756 -0.023505583 -8.0253245e-05 -0.04922741
0.05308583 0.04532318 0.035989758 -0.03583131 -0.045029283 0.04040322 0.005170624 0.011617254
0.028124368 -0.04975508 -0.051256515 -0.032900274 -0.013045765 -0.0049401694 -0.026436858 -0.028413305
-0.031193892 0.05026627 0.0462845 0.057968844 0.045276344 -0.022383736 -0.052145127 -0.021773413
0.050147586 0.023780994 -0.020621067 0.0072494415 -0.048867617 -0.008768499 0.022331953 -0.010183284
0.058346912 0.061266348 -0.008308411 -0.03309953 0.03809987 -0.020142658 0.03811316 -0.0065992195
-0.019202627 0.029058697 -0.031591907 0.004357169 0.012220362 0.015558713 -0.050518375 -0.054144714
-0.032297622 -0.024122283 -0.026044471 -0.035071615 -0.004401096 0.020929556 -0.04509784 -0.0067217425
0.05506612 0.06094744 -0.04694907 -0.018389596 -0.0052028424 -0.015873821 0.03247889 -0.057313766
0.0071769655 -0.0036290737 -0.016749969 -0.020662844 -0.021500237 -0.049193855 0.05532212 -0.04790788
-0.037023485 -0.046459176 0.0306331 -0.04958723 -0.0372224 -0.011336743 0.055616956 -0.03469297
-0.037908003 0.03490329 -0.027919404 -0.053891174 -0.025625924 -0.002383304 0.03767143 0.045731757
0.05002554 0.053484093 -0.003120897 -0.042256285 -0.019738277 -0.028406983 0.005574788 0.01370826
0.046337575 -0.038293142 0.021654783 0.04145529 -0.052338514 -0.04330945 -0.050685845 -0.019221587
0.01040895 0.048731912 -0.00038705286 -0.029385578 -0.0479991 0.011983773 -0.020872638 0.015300451
0.04763613 0.022423683 -0.00782722 0.047657587 0.0064478824 -0.025950288 -0.026996352 -0.011985011
-0.004067534 0.026452897 -0.0057566124 -0.010937907 -0.0531525 -0.021639727 0.014175421 -0.012847047

encoder.3.bias f4 [64]
00000000: 19d7 423c 1cce 26bd 48e5 03bd 6df4 123d
00000010: f452 403d 3aae df3c eb90 5c3c 781c 0fbd
00000020: c956 5bbd 7c62 07bd 1ead d93b 4081 623a
00000030: be47 b23c ebad a1bc 8c09 35bc 127c 843c
00000040: e4a4 81bc 5e2b e73b 2a42 42bd 2873 13bc
00000050: 6ac1 04bd ecd6 7b3c 7240 4fbd bf95 383d
00000060: 185c fc3c ef4c ea3c 635e 92bc d738 0cbd
00000070: 01fd 523d 2592 0cbd 5d77 86bc f2e6 32bd
00000080: ab92 38bc 4742 bdbb 243b 9eba 8a29 07bd
00000090: b9a8 28bb de58 bbbc 991d e13c 37a1 35bd
000000a0: 1598 553d 6465 97bc 333a 58bd 57f8 c0bc
000000b0: d214 8ebb 88f1 393d e8fb fe3b 72b2 ef3b
000000c0: dab1 01bd 4be3 a13c b75c 5cbd 36f7 143b
000000d0: f6fa 673d d800 a13c 132f 71bc 9dfc 513b
000000e0: 0eb2 9a3c 1f2e 233c ead7 163d f600 7bbc
000000f0: c948 01bd 9bd1 603c 21ba 2b3d 2be2 4b3d
0.011892104 -0.040723905 -0.03220108 0.035877634 0.04695411 0.027304757 0.0134622855 -0.03493926
-0.05354956 -0.033052906 0.0066429516 0.00086404756 0.021762725 -0.01973625 -0.011049639 0.016172443
-0.015825696 0.0070547303 -0.04742638 -0.008999623 -0.032411017 0.015371066 -0.05059857 0.045064684
0.030805632 0.028601138 -0.017867273 -0.034233894 0.051510815 -0.03431906 -0.016414339 -0.043677278
-0.011265437 -0.005775723 -0.0012072069 -0.0329986 -0.0025735332 -0.022869524 0.027479934 -0.0443432
0.05214699 -0.018480964 -0.052789878 -0.023555918 -0.004335978 0.045396358 0.0077814944 0.0073149735
-0.031663753 0.019761702 -0.053799357 0.0022730357 0.05663582 0.019653723 -0.014720696 0.0032041438
0.018883731 0.009959727 0.036827005 -0.015320053 -0.031563554 0.013721849 0.041925553 0.049776237

encoder.6.weight f4 [128, 64, 3, 3]
00000000: f7bd 52bc 3dc7 943c 2a76 d93c d18d 7a3c
00000010: 200a 0f3d fafd 0b3d adf7 9bba aa55 893a
00000020: d3f0 9bbc c356 96bc ba0a fc3c 94aa fe3c
00000030: 4819 a3ba f2ce c63c 67cc 2dbc a7d6 fd3c
00000040: f08b 94bc be01 033d 2c1d 99bb c924 14bc
00000050: fcf0 4dbc 4461 b0bc 92dd 5d3c 022b 08bd
00000060: bcc9 f2bc 582e 2cbd 4ca3 083d 6eb9 f7bb
00000070: 1c50 0fbd 3826 62bc f690 2e3d 833c 8fbc
00000080: 3c6f 87bc e2e7 fa3c 92ee 193d d0b6 b43b
00000090: 8188 5dbc 700b 343c a72a d03c 1a19 0ebd
000000a0: 0283 06bd 06d8 e0bc 31be 1b3d 3589 ccbb
000000b0: 40a5 04bd 46d4 223d 8bc0 1dbd 9252 2f3d
000000c0: ed66 b0bb 8d52 e73c 747f c33c 384d b9bc
000000d0: dc33 b33c b261 073d 9c58 b33b 710b 1239
000000e0: fe28 3b3c fb8b ddbc f708 aebc 8e3d 10bd
000000f0: 3f88 023d 7dcb fc3c bbd0 533c 0287 083c
00000100: 2ff8 4bbd 3959 a9bc d9f4 2cbd 05f4 9abc
00000110: f3a1 02bc b488 5cbd 9ad2 58bc 5dbb 953c
00000120: a5c4 b2bc c535 1a3d e102 f03a 0253 1c3c
00000130: a1aa 21bc 47cf 1e3c 87d4 0b3d 1cc3 9b3a
00000140: c1eb 873b ae97 a33c 7a7e 063c 6b52 9cbc
00000150: e963 603c d2c9 733c 9056 1d3b ea60 1abd
00000160: 140a 943c f9c4 e7bc f43b f5bc e405 e0bc
00000170: 51eb 14bd 570c b4bc 13ec c9bc 08bf acbc
00000180: 0da9 5dbc 1c1e 9b3c e701 cebb 6d4f 5a3b
00000190: 7de4 6f3c 4f22 ca3c c732 393c 5424 10bd
000001a0: 7567 9fbc 8e93 88bc 5ddd b73c f18b bbbb
000001b0: 9e99 d8bc 750d a43c 1bc3 09bd 5a21 893c
000001c0: 6b85 2bbc e664 16bc 1361 8ebc 64fe 49bc
000001d0: a844 e1ba 544a 163d f236 99bc f367 dbbc
000001e0: 7dba 0d3b ae4b a5b9 425f 0dbd ba96 25bd
000001f0: 6ac0 f93c 92c9 fd3c 507d 29bc f470 78ba
00000200: 6a71 b03c 274d 803c e087 e73c b085 17bd
00000210: 664a acbc 5c85 22bd e9ea 023d 89a3 033d
00000220: 1e8d 19bd c729 0bbd 340d 05bd 5fea 253c
00000230: 38d0 2c3d 768f 0dbd b046 2bbc 365a 46b8
00000240: ae7a 1e3d 79f5 043d 9f3d f6bc 7cdb 203c
00000250: c98d c1bb ac58 5cbc eab1 ffbb 061c ef3c
00000260: 46c1 da3c 36a4 9ebc ee1d bf3b 71d8 93b9
00000270: ba09 bbbc 5509 2fbd 0f16 f6bc 690f ab3a
00000280: 6e65 153d 131f 08bd 04a7 0ebd 542f fdbc
00000290: d06e 38bc 8693 233d c88f 7ebb 1c15 1c3d
000002a0: 4ae9 ce3c a625 313d 4b13 d8bc 5f24 cf3c
000002b0: 4eab f83c 41bd 82bc 7601 643c 8847 8fbc
000002c0: a2f2 253d 8aed 3ebc 2a11 fcbc a29c 9e3c
000002d0: f2ff bc3c a37a ac3c 91e1 98bc c3f1 3439
000002e0: 8ef8 b43a a591 f8bc 3efe 953c bae5 173d
000002f0: 8fd6 b3bc 53c2 073d a953 d0bc 3885 1ebc
00000300: 0911 163d 03e8 d4bc 6eb9 ab3a ae9b 13bd
00000310: f8f0 743c 8d0c 06bc c9ef 133d ddc0 063d
00000320: 76ec 1fbd 6bf7 d3bc 9bc4 be3c 841a c6bc
00000330: e5c7 08bd 5084 14bd 67db 1abd 2573 d9bc
00000340: 405d 273d 2d46 7a3c e698 e7bc f168 453b
00000350: 4c53 873c 915e 743c 7b5a 9abb dd1b 093d
00000360: 36e8 38bc 38b1 81bb 430d 76bc 1075 dd3c
00000370: ff76 973b 2678 dc3b 548c febb c482 783c
00000380: 1997 cd3c 12c4 57bc 6769 1abd c73a a5bc
00000390: ab0a aebc ee90 cebb 5439 f1bc e1af 2fbd
000003a0: 43fd 28bd efd1 c0bc 6029 54bc cae4 273d
000003b0: aa6d 8ebb 3646 0b3c eae6 30bd 5810 293d
000003c0: 37d4 d0bc 5f89 a93c fd0a a83c 3088 323c
000003d0: 7739 573b d263 063d 7591 1a3d eb68 ba3c
000003e0: 2699 dc3c 6afb 173b 6360 013d f4a6 8a3c
000003f0: 3cf1 1f3d b372 ae3b f038 a53c e811 a4bc
-0.012862674 0.01816141 0.026545603 0.015292601 0.034921765 0.034177758 -0.0011899375 0.00104778
-0.019035732 -0.018351918 0.030766834 0.031087197 -0.0012443447 0.024268601 -0.010607815 0.030986143
-0.018133134 0.031984083 -0.004672667 -0.009041973 -0.012569662 -0.021530755 0.013541596 -0.03324414
-0.02963721 -0.042036384 0.033358857 -0.0075599467 -0.034988508 -0.013803057 0.042618714 -0.017484909
-0.016532533 0.030628148 0.037581034 0.005514957 -0.013521315 0.010989055 0.025410963 -0.034691907
-0.032839783 -0.027446758 0.038023178 -0.0062419423 -0.032384157 0.03975322 -0.0385137 0.042803355
-0.0053833635 0.028237605 0.023864485 -0.022619829 0.021875314 0.033052154 0.0054732095 0.00013927907
0.0114233475 -0.027044287 -0.02124451 -0.035214953 0.031868216 0.03085875 0.012928183 0.00833297
-0.049797233 -0.020672427 -0.042225692 -0.018915186 -0.007973182 -0.053841308 -0.013233805 0.018277818
-0.021822283 0.037648935 0.0018311405 0.009541275 -0.009867341 0.009692973 0.03413823 0.0011883709
0.004147977 0.019969787 0.008208865 -0.019082269 0.013695695 0.014879661 0.0024007894 -0.03769008
0.018071212 -0.028292166 -0.029935814 -0.027346559 -0.036357228 -0.02197854 -0.024648702 -0.021087185
-0.013529074 0.018935256 -0.006286848 0.0033311502 0.014641878 0.024674563 0.01130361 -0.035190895
-0.019458512 -0.016671922 0.022444421 -0.0057234694 -0.026440438 0.020025948 -0.033633333 0.016739536
-0.010468821 -0.0091793295 -0.017380273 -0.012328718 -0.0017186599 0.03669198 -0.018702958 -0.026782965
0.0021626048 -0.00031527638 -0.034514673 -0.040426947 0.030487258 0.030979905 -0.010344818 -0.00094772805
0.021538455 0.01566179 0.028263032 -0.03699273 -0.02103157 -0.039677963 0.03196231 0.03213838
-0.037488095 -0.03397539 -0.032483295 0.010126679 0.04219076 -0.034560643 -0.010453865 -4.7290894e-05
0.038691215 0.032460663 -0.03005868 0.009817954 -0.0059067947 -0.013448875 -0.0078031914 0.029188167
0.026703488 -0.019365411 0.0058324253 -0.00028199286 -0.022831786 -0.04273351 -0.030039815 0.0013050857
0.036473684 -0.03323276 -0.034827247 -0.030906357 -0.0112568885 0.03993561 -0.0038843025 0.03810607
0.025257725 0.043248795 -0.026376387 0.025285898 0.030355122 -0.015959384 0.013916364 -0.017490163
0.040514596 -0.011653313 -0.030769903 0.019361798 0.023071263 0.021054571 -0.018662246 0.00017256201
0.0013806985 -0.030342886 0.018309709 0.03708432 -0.021952895 0.033144306 -0.025430517 -0.0096753165
0.03663734 -0.025989538 0.0013101527 -0.03603714 0.01495003 -0.008181703 0.03611735 0.032898773
-0.039043866 -0.025874814 0.023287108 -0.024182566 -0.03339376 -0.036258996 -0.037806895 -0.026544163
0.040860415 0.01527552 -0.02827115 0.0030122364 0.016519211 0.0149151245 -0.004710493 0.033473838
-0.011285832 -0.0039578937 -0.01501781 0.027033359 0.0046223397 0.00672819 -0.0077681933 0.015167896
0.025096463 -0.013169305 -0.037698176 -0.020169629 -0.021245321 -0.006303898 -0.029446281 -0.04289234
-0.041257154 -0.023537604 -0.012949318 0.040989675 -0.004346569 0.008500626 -0.043188967 0.041275352
-0.025491817 0.020695386 0.020513052 0.010896727 0.0032840648 0.03281004 0.037736375 0.022755107
0.026928496 0.0023190626 0.031586062 0.016925313 0.03904842 0.005323732 0.020168751 -0.02002807

encoder.6.bias f4 [128]
00000000: 3578 d03c c637 eebc d9d3 2cbd c58b 313d
00000010: 112e 0b3d 262c 0d3d fdba f1bc 04ea c03c
00000020: a8dd c4bb 329d fc3c 2d25 613c 2d72 57bc
00000030: f242 4fbc c7c1 0a3c 2e79 f1bb bb7c 173d
00000040: 185d 14bd cd5a a9bc e393 61bc 1927 813c
00000050: b6bf ea3c b3fe 3b3d 70ef bdbc bc72 5a3c
00000060: 35c1 05bd 451e a9bc f7f7 0f3c de58 a1bc
00000070: bb66 34bd 0531 393c 353b ac3c 6a63 d0bc
00000080: 43f6 da3c 0c57 b83c a94e 8cbc 48ae eabc
00000090: d959 22bd 1cdb 2d3d b116 90bc 1132 863c
000000a0: 7cbf cb3c c475 60bb cda0 acbc 702c bb3c
000000b0: b52f 12bc 7f04 5c3d 3b00 55bc d960 2cbd
000000c0: efab 9e3b 87b3 073d 9303 89bc 2fee 36bc
000000d0: 938b 093c d0be 213c 2ad2 f4ba 504a 95bc
000000e0: 7f97 50bc f190 d83c bdc1 573c 83ed 4ebc
000000f0: 12eb 6e3b f472 e8bb 593e d13b 8515 ed3c
00000100: 9a4b 0e3d 422f c8bc 8fe4 8c3b c077 8e3c
00000110: c8f4 9e3b ff73 d6bc a1f2 bcbc 63d0 30bd
00000120: 9448 cd3c a1da 0dbd cb72 2bbc e2e1 513c
00000130: e916 0e3d 745b acbc 3702 4b3c a696 e7bc
00000140: f9fc 08bd 5f66 103d 8129 153d 38fa 8b3b
00000150: 7c6a f03c d23b 3ebd c215 0f3d 0ce1 bdbc
00000160: bf10 66bc 131e 21bd 8edb ab3c edb4 92bb
00000170: edad 6c3c 513a f2bc 30f9 193d 907c 66bb
00000180: 55c5 a0bb a7bb 6e3b bbf1 bbba c7ad 29bd
00000190: 8a65 ae3c 26c4 113d 3055 70bc 3e00 133d
000001a0: 9b62 2d3d 688b b5bc 27a9 ec3c bfd1 94bc
000001b0: 5152 043b e55b 5fba 3f79 893b 5f34 673b
000001c0: 219f d5bb cbe8 d0bc e3f8 b63c ca91 b2bc
000001d0: 8b00 f0bc 2337 763c e117 1fbd e65c 683c
000001e0: e581 cfbc e53c 28bd 2740 14bd d0ce 91bc
000001f0: 9c16 40bc b2d2 733c e455 cb3c e82f 0a3d
0.025447944 -0.02907933 -0.04219422 0.043346185 0.03397948 0.03446593 -0.029508108 0.023549087
-0.006007869 0.030836675 0.013741774 -0.01314978 -0.012650238 0.008469052 -0.007369182 0.036984187
-0.036221594 -0.02067318 -0.013768169 0.015765714 0.028655868 0.045897197 -0.023185462 0.013333019
-0.03265496 -0.020644316 0.008787147 -0.019695695 -0.044043284 0.011303191 0.021024326 -0.02543803
0.026728755 0.022502445 -0.017127352 -0.028647557 -0.039636467 0.042445287 -0.017588945 0.016381295
0.02487158 -0.0034249881 -0.02107277 0.022848338 -0.008922507 0.053715225 -0.013000543 -0.04208455
0.0048422734 0.033130195 -0.016725337 -0.011165186 0.0083950935 0.009872153 -0.0018678356 -0.018223912
-0.012731432 0.026436301 0.013168749 -0.012629869 0.003645603 -0.0070937816 0.0063856062 0.028940925
0.034740068 -0.024436597 0.0042997072 0.017391086 0.0048509575 -0.026178358 -0.023064913 -0.043167483
0.025059022 -0.03463233 -0.0104643805 0.012810202 0.034689818 -0.021039702 0.012390665 -0.028270077
-0.03344438 0.03525388 0.036416534 0.0042717718 0.02934765 -0.046443768 0.03493286 -0.0231786
-0.0140420785 -0.03933532 0.020978715 -0.0044771344 0.014445764 -0.029568823 0.03759116 -0.003516946
-0.0049063363 0.0036427767 -0.0014339009 -0.041425493 0.021288652 0.035587452 -0.014668748 0.035888903
0.042330366 -0.0221612 0.028889252 -0.018166421 0.0020190666 -0.0008520468 0.004195362 0.0035279018
-0.006519214 -0.02550163 0.022335475 -0.021798033 -0.029297134 0.015027794 -0.038841132 0.014182305
-0.025330493 -0.0410737 -0.036193993 -0.017798811 -0.0117241405 0.014881777 0.02482123 0.033737093

decoder.0.weight f4 [64, 128, 3, 3]
00000000: 3c24 af3c 2e04 cb3c 4c46 d5bc f6b2 a5bc
00000010: 1498 d8bb 445b 6dbb 7351 61bc 0157 953b
00000020: 19cb ca3c 8a07 0b3c d35f 06bc e66a 9dbb
00000030: a4ff 71bb be34 bf3a 1a78 1abc 3fac e33b
00000040: 715a e33c 35f8 46bb 1a72 a5bb cf6b 51bb
00000050: cfa4 e1bc d3ab b93c f503 0bbb dd47 7fbc
00000060: 4d5f cdbc dc79 21bc 7dbb 823c 7841 2a3a
00000070: 640d 8bbc 214d 5dbc 1121 8ebc 675b 303c
00000080: 7f5b a3b8 6490 cd3b 8ece 06ba 8b99 3b3c
00000090: 696f c6bc d662 4f3c 7966 b5bc 8f0a ebbc
000000a0: f4b3 dfba e757 e0bc 9d7e b83c e247 293b
000000b0: 2d34 bbbc d246 813c e193 69bc c000 05bc
000000c0: 4b37 bf3c a02d 8d3b b299 b7bc 9be7 f2bc
000000d0: e370 933a e138 083a 1052 03bb 45f2 f9bc
000000e0: 9803 aa3c 9e3e 333b a154 673c 2a38 ddbc
000000f0: 52ac 8abc bbb8 efbb 57e0 2ebc e33a 13bc
00000100: 8311 293c 684d d1bc c122 c1bb fcfc 923c
00000110: 6191 f2bc 6bdb b4bb d0c0 47bc 33cd e03c
00000120: dd3f 943c 9ca7 093a 5f8b c0ba 90ab 9bbc
00000130: 9044 c7bc 30a9 863c 6f29 4cba 7aec 6a3c
00000140: 4e86 85bc 458e a03c ce47 e3bc 75dc ec3b
00000150: 1e46 113c d9dd c8bc 0393 a1bc 904c aebb
00000160: d72e c2bc 01a8 2cbc 83cd 76bc 8d60 e13b
00000170: 1c00 833c 5774 df3c 1c91 a2bb c8b0 be39
00000180: ad66 3a3c 316e 0a3c 5b37 51bb 674e 983c
00000190: c0fb 1c3c 5738 9b3c 0ca1 2e3c 7b3a 363b
000001a0: bcee c73c 570b 9cbc d055 7e3c 4bd9 863c
000001b0: 244d 8d3b 4bcf e63b 5ec1 f6ba d10f cbbc
000001c0: fde2 7dbc 7243 dd3b 0bb5 b6bc 0b0f 703c
000001d0: d9ff a83b b2f8 bc3c 4a11 22bc 5ac4 8ebb
000001e0: 5768 1eb8 3003 c5bc 4156 fbbb c4ec 47bb
000001f0: 780c 393a 57de 9b3c a616 c33c 1318 ab3c
00000200: bfc1 a93b 458b 023c 21b8 2c3c 2297 b1bc
00000210: 0b4e 443a 33c9 e5bc b170 c03c 2573 89bb
00000220: 1ae6 22ba 0af3 02bb 4d32 9c3c c2ff 823c
00000230: e2c1 3e3a 3fca 1a3c e953 0e3d 1e4a e1ba
00000240: c304 0539 c09a cabb 0ecf 7bbc 9361 68bc
00000250: e4d7 dc3c 8690 973c 37d6 aabc 5b41 c7bc
00000260: ea5f 97bc 81ed b7b8 2c13 ac3c 193e 92ba
00000270: e9c2 903c d602 ebbc 1a20 d53c 16e9 cbbc
00000280: f499 a7bc 55fd dbbc 682d e3bc f693 e5bb
00000290: e8f7 913c a4ce 5c3c eab0 683b 62a5 65bc
000002a0: 554e f4bc 4aac b2bc f7c0 443c 9e2a 24bc
000002b0: f779 873c c563 ddbb 1174 c8bc 3519 2e3c
000002c0: c737 953b 0454 b13b 8be7 d3bc 7706 b2bc
000002d0: 2142 d2bc 3ebe 643c a3ab 8dbc 39d2 c53c
000002e0: 76dd 213c e6a3 87bb deae aebc 819f 68ba
000002f0: 6d80 84bb 8674 8fbc 098a d13c 9bd7 c2bc
00000300: 6319 92ba f221 a4bc 228a babc ebf1 a73c
00000310: bf93 a13c 3eb9 7cbc e5f2 e9b8 c664 0ebc
00000320: e32c e0bc 157d bf3c 1488 d13b fea5 00bd
00000330: ed84 22ba f40a fcbc e304 0fbc 6235 dc3c
00000340: 87be 46bb 4610 b8bc cda0 123d 24ab d6bb
00000350: fcbc c03c 273d b43b 3fb2 953b 9ce4 6b3c
00000360: 49e7 babc 881b 0e3c d1ee e9bc b46c 1d3c
00000370: 15d0 e936 8b6e 9f3c 75f9 2d3a 63ee 913c
00000380: 3007 dc3c 0e2f 57bc 493e 32bb fb83 6f3c
00000390: bcd7 4e3c b32f 523c d7f1 653c 30b8 363c
000003a0: 798f 843c 1362 cd3c a79d 8abc a6c6 b0bb
000003b0: 1703 21bc 78f9 ea3b 92b1 4b3c 297f 83bc
000003c0: 17c2 85bb 3761 903c 315a ce3c 8a0a 423c
000003d0: d68d debb 79db ab3c 14d0 a4bc 8335 5f3c
000003e0: bc01 163c fc63 6bbc 3dfd a3bc 38bc a03b
000003f0: e816 bd3c 25c6 efbb 5f54 063c bea6 c0bc
0.021379583 0.024782266 -0.026034497 -0.020226937 -0.006609926 -0.0036217729 -0.013752329 0.004557491
0.024755048 0.008485684 -0.008201557 -0.004804003 -0.0036926055 0.0014587862 -0.0094280485 0.0069480236
0.027753087 -0.0030360345 -0.0050490024 -0.0031955128 -0.027544407 0.02266494 -0.0021212075 -0.015581098
-0.025069857 -0.009855714 0.015958542 0.0006494741 -0.016974159 -0.0135071585 -0.017349752 0.0107639795
-7.789488e-05 0.006273316 -0.00051424734 0.011450182 -0.024223046 0.012657842 -0.02214359 -0.028691558
-0.001706718 -0.027385665 0.022521311 0.00258302 -0.022852028 0.01578084 -0.0142564485 -0.008117855
0.023341795 0.0043084174 -0.022412155 -0.029651454 0.0011248853 0.0005196464 -0.0020037927 -0.03051103
0.020753667 0.0027350555 0.014119298 -0.02700432 -0.016927872 -0.0073157228 -0.010673604 -0.008986208
0.0103191165 -0.025549605 -0.0058940356 0.017942898 -0.029610338 -0.0055193207 -0.012191966 0.027441597
0.018096859 0.0005251111 -0.0014689973 -0.019002706 -0.024324685 0.016438097 -0.00077881565 0.014338607
-0.016299393 0.01959909 -0.0277442 0.007228429 0.008866815 -0.024519848 -0.019723421 -0.0053191856
-0.023703976 -0.010538102 -0.015063646 0.006877965 0.015991263 0.027277155 -0.004961146 0.00036371336
0.011377019 0.008449123 -0.0031923864 0.018592073 0.009581506 0.018947763 0.010658514 0.0027805853
0.02440583 -0.019048376 0.015523389 0.016461035 0.0043121744 0.007043754 -0.0018825938 -0.024787815
-0.015496013 0.006752425 -0.022303125 0.014652024 0.0051574525 0.023067806 -0.009891817 -0.004356903
-3.776731e-05 -0.024049371 -0.0076701944 -0.0030506114 0.0007059048 0.019026918 0.02381451 0.020885503
0.005180567 0.007967775 0.010541947 -0.021678511 0.0007488436 -0.02805004 0.023491235 -0.0041946345
-0.00062140974 -0.0019981288 0.019066954 0.015991095 0.00072768156 0.009447633 0.03474799 -0.0017188226
0.00012685642 -0.0061829984 -0.01536919 -0.01418342 0.026958413 0.018501531 -0.020854099 -0.024323156
-0.018478353 -8.7703585e-05 0.021005236 -0.0011157423 0.017671065 -0.028687876 0.026016284 -0.024891417
-0.020459153 -0.026854197 -0.027731612 -0.0070061637 0.017818406 0.013477001 0.003550584 -0.014016481
-0.029822508 -0.02181067 0.012008897 -0.010019926 0.01653765 -0.006756278 -0.024469407 0.010626127
0.0045537683 0.005411627 -0.025867244 -0.021731598 -0.025666298 0.013961373 -0.017293757 0.024148094
0.009879461 -0.0041394113 -0.021323618 -0.00088738656 -0.00404363 -0.017511617 0.025578516 -0.02378445
-0.0011146482 -0.020035718 -0.022770945 0.020501098 0.019723771 -0.015425025 -0.000111555484 -0.008691018
-0.027365154 0.023375073 0.0063943956 -0.031408302 -0.0006199617 -0.030766942 -0.008729192 0.026880924
-0.0030325965 -0.022468697 0.035797883 -0.0065511633 0.023527615 0.005500454 0.0045683677 0.014397766
-0.022815363 0.008673556 -0.02855626 0.009608436 6.968165e-06 0.01946189 0.0006636598 0.017813867
0.026858896 -0.013133777 -0.002719777 0.014618869 0.012624677 0.012828755 0.01403471 0.011152312
0.016181694 0.02507118 -0.016920878 -0.0053947745 -0.009827397 0.0071708523 0.012432473 -0.016051846
-0.004081975 0.01762448 0.025189491 0.011843333 -0.0067918105 0.020978676 -0.02011875 0.013623598
0.009155687 -0.0143671 -0.020018214 0.00490525 0.023082212 -0.007317322 0.008198827 -0.023517009

decoder.0.bias f4 [64]
00000000: 2332 58bc 7fff 183c b4bb d03c c492 3b3b
00000010: afac 923c 25de f3b9 c96e 76bc 487a 3a3c
00000020: 712f 5a3b 0f77 9c3c 1e9a b63c da62 a23c
00000030: 1bc5 633c 313a f4bc e126 82bc 6365 f2bc
00000040: 6bca 2abc db09 163b 4743 7c3c a6b3 143c
00000050: 6fbd b93c 7689 aabc 612d 4b3c 9447 e7bc
00000060: 1537 b43c 97d8 a93c 9f71 36bc 86a6 d3bb
00000070: 5b7e c6b9 4346 a2bc f4b9 49bc 2a4e 773c
00000080: 294d 8e3c ef48 633c 4249 bd3c 7dca a3bc
00000090: 2218 993c e0fb c63c 4980 b03c 068e 013d
000000a0: 6902 00bd 915b 30bc c3c7 bb3b 1450 54bc
000000b0: a615 acbc f30e afbc 6711 d9bc f08c 9e3c
000000c0: 05ef fdbc 9518 6bbc afa9 24bc 887c 3dbb
000000d0: e86f 343a b32d b33b 3eb2 c7bc 4e19 753c
000000e0: 7703 803c e917 c1bc f6a8 83bc 00cf 4dbc
000000f0: 0b42 62bc dc2f 94bc c290 22bc 0b85 0e3c
-0.013195547 0.009338259 0.025480129 0.0028621415 0.017904608 -0.00046514082 -0.015041062 0.011381693
0.0033292437 0.01909974 0.022290286 0.019822527 0.013901974 -0.029812904 -0.01588768 -0.02958936
-0.010424237 0.0022894058 0.0153969 0.009076035 0.022673337 -0.0208175 0.012400956 -0.028232373
0.021998921 0.02073316 -0.011135488 -0.00645906 -0.00037859645 -0.019808894 -0.012312401 0.015094319
0.017370777 0.013872369 0.023106221 -0.019994015 0.018688265 0.024290025 0.021545546 0.031629585
-0.0312523 -0.010764019 0.0057306006 -0.012958545 -0.021006417 -0.021369433 -0.026497556 0.019354314
-0.030997762 -0.0143491225 -0.010050221 -0.0028913338 0.00068831304 0.0054680943 -0.024376985 0.014959646
0.015626652 -0.023570972 -0.016071778 -0.01256156 -0.013809691 -0.018089227 -0.009922208 0.008698712

decoder.2.weight f4 [32, 64, 3, 3]
00000000: 74e1 adbc e0fe c8bc 7748 2ebd 4266 ac3c
00000010: 8e38 213c 69a4 11bd 2eb8 3f3b 7727 223d
00000020: ff5d c0bc 0a70 48bc 80f4 713c ffba e13c
00000030: bafd d4bc 733f 09bd e56c b7bc 6626 113c
00000040: 4297 10bd e465 123d 36c0 703c 3e35 133c
00000050: 74f2 04bc 22d5 b53c cbb3 9239 4b2e f03b
00000060: 30fb 8d3c a4b2 0dbd e2d3 0abc 2b16 3a3b
00000070: c3b1 663c e958 adbc a14c a73a a925 d2bc
00000080: 8e13 febc c725 b4bb b758 2ebb 33e5 e9bc
00000090: 117a 8bbc 7b3d cdbb 1134 063d 56c7 a93a
000000a0: 2547 5ebc 2b4b 193d d322 0cbd 46f1 14bc
000000b0: 4eca 0dbc 38d5 f0bc c765 113d 3566 e03b
000000c0: 3017 cabc 2307 203d 77e7 87bb 1e2b 9dbb
000000d0: c764 97bc 532c ffbc 16ce 08bd 6667 cabc
000000e0: 1806 ed3c 4b4b bbbc d835 b6bc c797 5f3c
000000f0: c7de 22bd 04a6 a93c 65dc 09bd f849 073d
00000100: 5e06 48bb 7765 05bb b5bf 023d 5901 0a3a
00000110: f226 d33c 588c 27bd 1591 033b 393d b3bc
00000120: dbab 163d a486 af3c f542 d93c 15b2 303c
00000130: c531 c1bc 120c cc3c d344 073d e146 9cbb
00000140: f5dc afbc cf30 083c d901 4b3c 3ca6 eebc
00000150: 52ff 5f3c bda0 cabc b26f d0bc 7172 11bd
00000160: 581b 9abc fbcf b2bc d5dd af3b 933b 1dbd
00000170: 57cb ba3c d647 b03c 5ddc b4bc 05ba f03c
00000180: a203 e3bb f0ee 73bc efa1 323c cacf b1bc
00000190: caca 6dba e810 ba3a 71f2 15bd ba5d 433c
000001a0: 57d1 233d dcd3 15bd 18fc a9bc 55ce 7b3c
000001b0: 5ab2 503c b61f eabb 9b67 b73c 9ecc 2e3d
000001c0: 133d 1bbd ea2d 1dbb 1ebc fdb8 94f2 24bd
000001d0: cdb4 11bd 931b c0bc 0165 8cbc f936 3b3d
000001e0: c775 b9bc 7dfd ca3c 1677 2f3a bd3d 17bd
000001f0: 5014 80bc 953b 123d 824a 29bd 31c2 27bd
00000200: 820a 05bd 89e9 003c ae68 e43c c914 ff3c
00000210: a6b1 89bc b8bf 7f3c 8529 173d f840 8cbc
00000220: 2b82 d13c 63d3 b43a 3d2a b33c 3cd2 87bc
00000230: c95a c13c 6237 f4bc 54d7 9139 f471 41bc
00000240: 27f2 c8bb 44fd 10bc b2a5 9abc a016 fabc
00000250: e8e7 dcbc 127a 823b f23e eebc 9d77 17bb
00000260: 5631 9b3c 735d 9f3c fdf7 cbbc 1673 09bd
00000270: 1ec6 143d 7109 1e3d f396 ccbc 643f 82bc
00000280: 8a8b 91ba 9e8b d0bb 7f2f 7f3b 8a7d 1fba
00000290: bbbb bb3c 0aae b53b 97dd 27bd 7d22 b33c
000002a0: e6bf 163b 3320 68bd 7548 71bd 18d6 06bd
000002b0: 607a b23b d23a 41bc 5b29 c2bc 0cf9 76ba
000002c0: 251b a3bc 8667 f3bc b956 d13c bb1a 04bd
000002d0: d20e 1b3d addd 6b3b 2512 33bd 600d 16bd
000002e0: cec5 463c 2af5 b5bc 7c2c 343a 7c1e d1bc
000002f0: 28ff f03c 7f45 73bc 6c5f 82bc a68f 11bd
00000300: 97a7 793c ccba 0e3c 03c7 c6bc ab3d 053d
00000310: 248c f8bb b6cc a5bb 24db fd3c 25af 12bd
00000320: 0ef8 303d c806 26bc 4f80 0cbd a194 1d3d
00000330: d833 f13c a2e1 93bc d76e a03c c7f6 543c
00000340: adef 7f3c 97cf 51bc fbfe db3c f6c3 cfbb
00000350: 640b 233d 179a b0bc 80b9 0abd 9a91 1cbd
00000360: d6bf f5bc 41c1 ebbc 12cd 20bd 7ae0 063d
00000370: b739 82bc dab9 8cbc 7c4f fa3c 97d9 ffba
00000380: 2c8a 22bd 0e1b e1bc ead7 a03c 92c5 2cbc
00000390: aada 803c 989d 2ebc d056 89bb d97c ab3b
000003a0: 5005 81bc f5dd debb 7075 bebc e0f6 063d
000003b0: 9929 103d e927 163a 5a6f 0c3c 4330 4b3c
000003c0: d364 0dbb f87c dcbc 1813 adbb 0e5f d53c
000003d0: e392 003c 40ea a0bb fc04 2abd da8c 1abd
000003e0: 39e2 83bc fd62 4d3c 5fe4 df3c 4723 12bd
000003f0: 6856 863c 7b64 71bc be83 05bc 348e ba3c
-0.021225668 -0.024535596 -0.042549577 0.021044854 0.009840144 -0.035557184 0.0029254067 0.039588418
-0.02348232 -0.012233743 0.014767766 0.027554987 -0.025999893 -0.033507776 -0.022390792 0.008859253
-0.0353005 0.0357417 0.014694264 0.008984862 -0.008114446 0.022196356 0.00027981246 0.0073297373
0.01733169 -0.034594193 -0.008473368 0.002839456 0.014080468 -0.02116056 0.0012763926 -0.025652723
-0.031015184 -0.0054976675 -0.002660317 -0.028551674 -0.01702598 -0.0062634326 0.0327645 0.0012953083
-0.013566767 0.0374252 -0.0342129 -0.009090727 -0.00865419 -0.029398546 0.035497453 0.0068481215
-0.02466926 0.039069306 -0.004147466 -0.0047963997 -0.018480672 -0.031149065 -0.033399664 -0.024707507
0.02893357 -0.02286305 -0.022242472 0.013647026 -0.03976324 0.020709045 -0.03365745 0.033029526
-0.0030521373 -0.0020354667 0.031921107 0.0005264483 0.025775407 -0.040905327 0.002007549 -0.02187978
0.036784988 0.021426506 0.026521185 0.010784646 -0.023583302 0.0249081 0.03302462 -0.0047691916
-0.021467665 0.008312418 0.012390577 -0.029132001 0.013671713 -0.02473485 -0.025443885 -0.03550953
-0.018811867 -0.021827688 0.0053670206 -0.038386893 0.022802038 0.021518629 -0.022077734 0.029385576
-0.0069279233 -0.01488851 0.010902866 -0.021705527 -0.00090710504 0.0014195712 -0.036608163 0.011924202
0.039994564 -0.036578998 -0.02075009 0.015369018 0.012737835 -0.0071448935 0.02238827 0.042675607
-0.03790004 -0.0023983666 -0.0001209902 -0.040270403 -0.035572816 -0.023450648 -0.017138006 0.045706723
-0.022639168 0.024779076 0.00066934654 -0.036924113 -0.015634686 0.035701353 -0.04133082 -0.04095668
-0.032480724 0.007868179 0.027881946 0.03113784 -0.016808342 0.015609674 0.03690483 -0.017120823
0.025574764 0.0013795908 0.021870727 -0.01657974 0.02360286 -0.029811565 0.00027816987 -0.011806954
-0.0061323824 -0.008849446 -0.018877838 -0.030528367 -0.02696605 0.003981837 -0.029082749 -0.0023112067
0.018944424 0.01945374 -0.024898523 -0.03355702 0.03632175 0.038583223 -0.024974322 -0.015899368
-0.0011104208 -0.0063643 0.0038938222 -0.00060840754 0.022916665 0.0055444287 -0.04098281 0.021867031
0.0023002564 -0.056671333 -0.05890699 -0.03291902 0.005446717 -0.011793809 -0.02370136 -0.0009421266
-0.019910404 -0.02971245 0.025554048 -0.032252055 0.03785593 0.0035990283 -0.043718476 -0.03663385
0.012132121 -0.02221163 0.0006873084 -0.025527231 0.029418543 -0.014848112 -0.015914641 -0.035537384
0.01523771 0.008711528 -0.024264818 0.032529514 -0.0075850654 -0.005059804 0.030988283 -0.035811562
0.043205313 -0.010133453 -0.034302052 0.03847182 0.029443666 -0.018051926 0.019584103 0.012998289
0.015621108 -0.012805841 0.026854983 -0.006340499 0.039805785 -0.02155785 -0.033868313 -0.038224794
-0.029998701 -0.028778674 -0.03925807 0.03292892 -0.015896661 -0.017178465 0.03055548 -0.0019519803
-0.039682552 -0.027478721 0.019634206 -0.010545151 0.015729267 -0.01065769 -0.004191257 0.005233389
-0.015749604 -0.0068013617 -0.023249358 0.032950282 0.03519592 0.0005727993 0.00857147 0.012401643
-0.0021574988 -0.026915058 -0.005281817 0.026046302 0.0078475205 -0.0049107373 -0.04150866 -0.037731983
-0.016099082 0.012535808 0.027330576 -0.035678174 0.016398624 -0.014733429 -0.008149086 0.022772886

decoder.2.bias f4 [32]
00000000: 2e6f de3c b81d ec3b 22b6 fbbb 238f 7a3c
00000010: 0221 b1bc f319 fcba 4b88 69bc 4cde 09bd
00000020: f252 dd3c 43d8 10bb 31a8 353c 0523 22bc
00000030: 9f9c 0b3d a168 84ba 49cf 8fba 5c36 0d3d
00000040: 38af e63b 4bb4 1f3d 325e e1bb 7b69 d4bc
00000050: 6db0 ed3a 5825 a53c e199 fa3b 962b 3e3c
00000060: 6bd4 86bc 0cff c9bc 3f85 a13c b710 ae3c
00000070: ff58 383c 752f 243d ddce 33bb 2713 17bd
0.027152624 0.007205691 -0.007681624 0.0152929155 -0.021622185 -0.0019233808 -0.014253686 -0.033659264
0.02701709 -0.0022101558 0.011087463 -0.009896045 0.034084912 -0.0010101983 -0.001097181 0.03447567
0.0070399307 0.0389903 -0.006877684 -0.025929203 0.0018134244 0.020159408 0.0076477383 0.011607071
-0.01645871 -0.024657749 0.019716857 0.021248205 0.011251687 0.04008432 -0.0027436533 -0.0368835

decoder.4.weight f4 [1, 32, 1, 1]
00000000: 5751 2fbd ae67 22be 4979 f93d 7353 efbc
00000010: b029 5e3d 2364 fe3d 19b7 2ebe 6cc9 923d
00000020: 6307 af3d 6f33 d43d d8b2 2bbe 3654 53bb
00000030: 2f37 1cbe 5c24 abbd 73a3 08be 61bb a6bb
00000040: 1a81 60bd d8bb 183e c24a b03d d1d8 5a3d
00000050: 3439 d6bd d219 30be e281 f23d d788 383e
00000060: 7a69 0e3e 4916 bd3d c233 273e 08b8 e73d
00000070: c677 533d 0fb6 233e b6d3 913d 7944 f9bc
-0.04280218 -0.15859863 0.121813364 -0.029214596 0.054238975 0.12421443 -0.17062034 0.071673244
0.08546331 0.10361373 -0.16767442 -0.0032246239 -0.15255426 -0.083565444 -0.13343601 -0.0050882553
-0.05481062 0.14915407 0.08608009 0.05342943 -0.104601294 -0.1719735 0.118411794 0.1802095
0.13907424 0.09232766 0.16328338 0.11314398 0.051627897 0.15987419 0.07120459 -0.030428158
